----------------------------------------------------------------
        Layer (type)               Output Shape         Param #
================================================================
            Conv1d-1               [-1, 64, 60]           8,128
       BatchNorm1d-2               [-1, 64, 60]             128
              ReLU-3               [-1, 64, 60]               0
         MaxPool1d-4               [-1, 64, 30]               0
            Conv1d-5              [-1, 128, 30]          24,704
       BatchNorm1d-6              [-1, 128, 30]             256
              ReLU-7              [-1, 128, 30]               0
         MaxPool1d-8              [-1, 128, 15]               0
            Conv1d-9              [-1, 256, 15]          98,560
      BatchNorm1d-10              [-1, 256, 15]             512
             ReLU-11              [-1, 256, 15]               0
        MaxPool1d-12               [-1, 256, 7]               0
           Linear-13                 [-1, 1024]       1,836,032
             ReLU-14                 [-1, 1024]               0
          Dropout-15                 [-1, 1024]               0
           Linear-16                  [-1, 250]         256,250
================================================================
Total params: 2,224,570
Trainable params: 2,224,570
Non-trainable params: 0
----------------------------------------------------------------
Input size (MB): 0.01
Forward/backward pass size (MB): 0.33
Params size (MB): 8.49
Estimated Total Size (MB): 8.83
----------------------------------------------------------------
