…
2024-04-30 10:09:07,763 - __main__ - INFO - Test Loss 4.381535053253174 Accuracy 0.15625
2024-04-30 10:09:07,766 - __main__ - INFO - Epoch 1 Loss 4.764722479489978 Accuracy 0.06148693710565567
2024-04-30 10:09:08,048 - __main__ - INFO - Test Loss 4.361674785614014 Accuracy 0.10123835504055023
2024-04-30 10:09:08,251 - __main__ - INFO - LOSS OVER EPOCHS: {loss} ACCURACY OVER EPOCHS: {accuracy}
----------------------------------------------------------------
        Layer (type)               Output Shape         Param #
================================================================
            Linear-1             [-1, 32, 1024]       2,581,504
              ReLU-2             [-1, 32, 1024]               0
           Dropout-3             [-1, 32, 1024]               0
            Linear-4              [-1, 32, 512]         524,800
              ReLU-5              [-1, 32, 512]               0
           Dropout-6              [-1, 32, 512]               0
            Linear-7              [-1, 32, 250]         128,250
================================================================
Total params: 3,234,554
Trainable params: 3,234,554
Non-trainable params: 0
----------------------------------------------------------------
Input size (MB): 0.31
Forward/backward pass size (MB): 1.19
Params size (MB): 12.34
Estimated Total Size (MB): 13.83
----------------------------------------------------------------
2024-04-30 10:10:03,053 - __main__ - INFO - X_train shape: (75580, 1260, 2)
…
